misc/models/chordnetmm7.ckpt (torch, 359183 bytes, 36 tensors)

exp_avg f4 [30, 7, 12]
0	0xbb2f8efd	-0.0026788109
1	0x3b0bde79	0.002134232
2	0x39e9249e	0.00044468505
3	0xbb888f38	-0.0041674636
4	0xbbd7af2f	-0.006582163
5	0xbb646e1f	-0.0034855676
6	0xbad9646e	-0.0016585717
7	0x3ac8c6db	0.0015318053
8	0x3b802247	0.003910336
9	0xba8bd726	-0.0010668978
10	0xbb8b1166	-0.0042440174
11	0xbbb99451	-0.0056634326
12	0xbb5ebcf7	-0.0033987144
13	0x3a95a1d8	0.0011416031
14	0x3a340301	0.00068669027
15	0xbb9040ac	-0.0044022407
16	0xbb6154dd	-0.0034382858
17	0xbb3c3e95	-0.0028723825
18	0x3a364343	0.0006952772
19	0x3a91360d	0.001107873
20	0x3b464847	0.0030255483
21	0xbb84dc2d	-0.0040545673
22	0xbbbe4ee9	-0.0058077467
23	0xbbbf19f8	-0.005831953
24	0xbb956a6a	-0.0045598047
25	0xbb97e290	-0.0046351627
26	0xbbba00cb	-0.005676364
27	0xbb184a4e	-0.0023237648
28	0xbb5b3b59	-0.0033452122
29	0xbb0f37b4	-0.002185327
30	0x3a129929	0.00055922806
31	0xbab01633	-0.001343435
32	0x3ae2015c	0.0017242837
33	0xbacda139	-0.0015688307
34	0xb9168740	-0.000143555
35	0xbb93a3c4	-0.0045056064
36	0xbbe6c2fc	-0.007042287
37	0xbb9693c0	-0.00459525
38	0xbb03167a	-0.002000241
39	0xbb21c415	-0.0024683524
40	0x3abf78ba	0.0014608123
41	0xbae29914	-0.0017288052
42	0xbb467c55	-0.003028651
43	0xbad0bc1b	-0.00159252
44	0x38f75605	0.000117939
45	0xbb2360af	-0.0024929454
46	0xbac8d8a2	-0.0015323351
47	0xbb5c69ac	-0.0033632321
48	0xba548728	-0.0008107298
49	0x3b099762	0.0020994772
50	0x3a8d06a6	0.0010759428
51	0xbbd75384	-0.006571235
52	0xbc053004	-0.008129124
53	0xbba407d4	-0.005005816
54	0xbb251214	-0.0025187777
55	0x3a49cf8c	0.00076984684
56	0x3aeb1e2e	0.0017938071
57	0xbb436a4d	-0.0029818
58	0xbc031773	-0.008001196
59	0xb9c23203	-0.00037039825
60	0xb919f182	-0.00014681186
61	0x3a8b291a	0.0010617108
62	0x3ade33f0	0.0016952734
63	0xbbb91c17	-0.0056491005
64	0xb96a51ee	-0.000223465
65	0xbb6aa506	-0.0035803928
66	0xba989ab9	-0.0011642791
67	0x3a5e30d0	0.00084759016
68	0x3a164686	0.0005732555
69	0xbba7040e	-0.005096919
70	0xbc10b5a7	-0.008832372
71	0x381f28a4	3.7946404e-05
72	0xbb387e59	-0.002815148
73	0xbb0eebd8	-0.0021808054
74	0xbb81eb17	-0.0039647925
75	0xbb6f23db	-0.0036489877
76	0x3b2fdb68	0.0026833657
77	0x3ae9cd8a	0.0017837745
78	0xba5fc5fb	-0.00085362763
79	0xbb5baa48	-0.0033518244
80	0x3ae27979	0.0017278633
81	0xbb0f4791	-0.0021862725
82	0xbb804e3b	-0.003915576
83	0xbb7e0caa	-0.0038764873
84	0x39f9e1b7	0.00047661152
85	0xb91c2079	-0.00014889416
86	0x3b02166e	0.0019849795
87	0xbc00642a	-0.007836381
88	0x3a842878	0.0010082861
89	0xbba72e92	-0.005101987
90	0xbc02fd55	-0.007994969
91	0xb9afd0b6	-0.00033534103
92	0x3aa72840	0.0012753084
93	0xbb6f5f37	-0.0036525258
94	0xbab03193	-0.0013442509
95	0xbb41787a	-0.0029521273
96	0xbb20f9ca	-0.0024562948
97	0xba23c8ab	-0.00062478584
98	0x3b33beff	0.0027427075
99	0xbbacf3f1	-0.0052781035
100	0x3afabb6f	0.0019129346
101	0xbac124e0	-0.0014735721
102	0xbbec37ba	-0.0072087916
103	0xbb3de8c3	-0.0028977848
104	0x3a5dbf13	0.0008458953
105	0xbb3fbc8f	-0.0029256677
106	0xbb88b3a9	-0.004171808
107	0xbadbee1c	-0.0016779336
108	0xbb260925	-0.002533504
109	0x3aed7528	0.001811658
110	0xb98091bf	-0.00024522652
111	0xbba74af7	-0.005105372
112	0x3afacdb4	0.0019134791
113	0x39ce2510	0.00039318996
114	0xbbcfaee5	-0.0063379877
115	0xb91626b4	-0.00014319533
116	0xbb84445c	-0.0040364694
117	0xbb973e41	-0.0046155755
118	0xbae7e4ee	-0.0017692128
119	0x3b123430	0.0022308938
120	0xbb94251c	-0.0045210253
121	0xb9e2e754	-0.00043278432
122	0x3a82b5d1	0.0009972398
123	0xbbecd939	-0.0072280434
124	0x3bce9e4f	0.006305493
125	0xbae36631	-0.0017349181
126	0xbba0b691	-0.004904576
127	0xbb437cb7	-0.0029828975
128	0xbbd14ce8	-0.006387342
129	0xbb62e4c7	-0.0034621225
130	0xba1c7948	-0.0005969
131	0x3a99de3f	0.0011739208
132	0xbbe208d0	-0.006898023
133	0x3bc50984	0.0060130972
134	0x39172545	0.00014414366
135	0xbc4d2ef7	-0.012523404
136	0x3c328b92	0.010897534
137	0xbba63dd9	-0.005073291
138	0xbb927cb7	-0.0044704336
139	0xba46d1a3	-0.0007584339
140	0xbb3bf810	-0.0028681792
141	0x395b8146	0.00020933626
142	0xb7911c74	-1.7298597e-05
143	0xbc0d580d	-0.00862695
144	0xbb5690e3	-0.0032740168
145	0x3bb14633	0.0054099797
146	0xbb6c679e	-0.0036072503
147	0xbbffa4b5	-0.007801617
148	0x3bad90b8	0.005296793
149	0xbb8fb05a	-0.0043850364
150	0xbb8aad7d	-0.004232107
151	0x3b33bcc8	0.0027425755
152	0xbaa63b62	-0.0012682492
153	0xba940a8d	-0.0011294648
154	0xbbcc7035	-0.006238962
155	0xbc25d8c5	-0.010122483
156	0x3a801c5b	0.0009774076
157	0x3bec3331	0.007208251
158	0xbb801232	-0.003908419
159	0xb93b2b28	-0.00017849787
160	0x3b1ad53d	0.0023625635
161	0xbb96cfef	-0.0046024243
162	0xbc01a1c9	-0.007912108
163	0xbaf4cf74	-0.0018677549
164	0xbbe934ee	-0.0071169054
165	0x3a8f494d	0.001093188
166	0xbb2f987b	-0.0026793766
167	0xbb4431d9	-0.0029936938
168	0xb8b094d9	-8.420059e-05
169	0x3a27c791	0.0006400282
170	0x3aad894f	0.0013239774
171	0x3a93c86a	0.0011274938
172	0xbaee4764	-0.0018179235
173	0x3a57dd39	0.0008234564
174	0xba8bc1e7	-0.0010662646
175	0x398ccc0f	0.00026854916
176	0x3a421d18	0.0007404848
177	0x3a50a14a	0.0007958604
178	0x38890b06	6.534722e-05
179	0xb90d6a47	-0.00013486399
180	0x397710ac	0.00023561966
181	0x399a73c1	0.00029459412
182	0x3a4d02e7	0.0007820562
183	0x3a24e6ef	0.00062905153
184	0xba293086	-0.0006454069
185	0x3a8eabef	0.001088498
186	0xb9c606c6	-0.0003777055
187	0x39bc0923	0.00035864962
188	0xb95c6254	-0.00021017465
189	0x39dc5fcd	0.00042033047
190	0x38364a8e	4.3461616e-05
191	0x39a24777	0.00030952293
192	0x391aaf33	0.00014751851
193	0xb9c55ddd	-0.00037644702
194	0x395ac6fe	0.0002086423
195	0xb9513b64	-0.00019953918
196	0xb96f9c3d	-0.0002285102
197	0x3a844a4a	0.0010092941
198	0x38d0cdc1	9.9565375e-05
199	0x374eab01	1.2318372e-05
200	0xb999f0f6	-0.00029361964
201	0x392dd9e9	0.00016579744
202	0x39cee103	0.0003945903
203	0x39c9a9db	0.0003846426
204	0xb8593da9	-5.1794257e-05
205	0xb98ed5ed	-0.00027243738
206	0x3772b55a	1.4466548e-05
207	0xb9a9b7f8	-0.0003237126
208	0xb8bfb6fd	-9.141674e-05
209	0x3a5f00f7	0.00085069187
210	0x3989567c	0.00026195112
211	0x3905b459	0.00012751053
212	0xba0a0925	-0.0005265645
213	0xb971896e	-0.00023034748
214	0x38bff450	9.1530965e-05
215	0x39c1eadb	0.0003698681
216	0x38c3aa4b	9.330044e-05
217	0xb7956055	-1.7807042e-05
218	0x38ac1d44	8.20705e-05
219	0xb9d6a4a9	-0.00040939942
220	0xb91a8513	-0.00014736158
221	0x39e27e83	0.00043200338
222	0xb93153e2	-0.00016911284
223	0x38f24774	0.000115527684
224	0xb9d6a05e	-0.00040936744
225	0xb99b5845	-0.0002962967
226	0xb933d35c	-0.00017149508
227	0x39748e9b	0.00023322778
228	0x39c0f97e	0.0003680698
229	0xb93c6e73	-0.00017970223
230	0x38441e84	4.675846e-05
231	0xba3a401d	-0.00071048905
232	0xb8dcbed2	-0.000105259605
233	0x39c5c100	0.00037718564
234	0xb906b311	-0.00012845943
235	0x38e919bd	0.000111151
236	0xb93f4436	-0.0001824059
237	0xb99a6538	-0.00029448583
238	0xb80d1ae5	-3.3642067e-05
239	0x39acf1cf	0.00032986558
240	0x399c497c	0.0002980939
241	0xb98ea8ba	-0.00027210062
242	0x37dd39fa	2.637225e-05
243	0xb9e4986c	-0.00043601112
244	0x383e2d90	4.5341963e-05
245	0x39cbffea	0.00038909848
246	0xb9c41fd2	-0.0003740774
247	0xb776efed	-1.4718605e-05
248	0xb9ad624c	-0.00033070368
249	0xb9f2f914	-0.00046343415
250	0x38bb07f6	8.918338e-05
251	0x390bfcd2	0.00013350256
252	0x3bcf0a28	0.0063183494
253	0x3b8d5f2e	0.004314325
254	0x3a766bd5	0.00094002235
255	0x3bbf3648	0.0058353283

exp_avg_sq f4 [30, 7, 12]
0	0x39b96850	0.0003536367
1	0x39edd8e2	0.00045365753
2	0x3a05a420	0.0005098004
3	0x3a01debd	0.000495415
4	0x39f0d09b	0.0004593179
5	0x39d4eb18	0.0004061095
6	0x3a20fe7a	0.00061414356
7	0x39d3a3c6	0.00040367077
8	0x399efaa7	0.0003032286
9	0x3a230c13	0.0006219756
10	0x3a0afac9	0.0005301652
11	0x3a01fb1a	0.00049583765
12	0x398da4bf	0.0002701636
13	0x39e46099	0.0004355952
14	0x3a15bbc6	0.00057118793
15	0x39f2eb98	0.00046333368
16	0x39f4a0dc	0.00046659156
17	0x39f425d9	0.00046567505
18	0x3a1ffc50	0.0006102966
19	0x39b30a7c	0.00034149352
20	0x39a5e1cb	0.0003163948
21	0x3a1ef2ce	0.00060634024
22	0x3a152261	0.0005689022
23	0x3a11ecdb	0.0005566605
24	0x39b13c5f	0.0003380505
25	0x39cf9e03	0.00039599845
26	0x3a31c73e	0.00067817036
27	0x39eb4d68	0.00044880365
28	0x39e7a1d3	0.00044180322
29	0x39f3b5ac	0.00046483928
30	0x3a1fe688	0.00060997205
31	0x39a57017	0.00031554766
32	0x399925f2	0.00029210706
33	0x3a140e82	0.0005647914
34	0x39f46226	0.00046612433
35	0x39fb65d2	0.00047950313
36	0x39af60c6	0.00033450703
37	0x39be6ac3	0.00036319168
38	0x3a4720ef	0.0007596155
39	0x39fd148b	0.00048271226
40	0x39e6c701	0.00044017288
41	0x39e2967e	0.00043218205
42	0x3a39f6e1	0.0007093978
43	0x39ab969c	0.00032727874
44	0x3996ed1d	0.00028786893
45	0x39fd0167	0.00048256965
46	0x39ea4811	0.00044685652
47	0x3a26c64c	0.0006361946
48	0x39af8703	0.00033479193
49	0x39c1b881	0.00036949295
50	0x3a020c80	0.0004960969
51	0x39f124a2	0.00045994396
52	0x39f79554	0.0004722277
53	0x39e36d55	0.00043378273
54	0x3a28fcb9	0.000644635
55	0x39dad8b0	0.00041741645
56	0x39af3d2b	0.00033424175
57	0x3a0be1e1	0.0005336088
58	0x3a0393ce	0.0005019278
59	0x3a1726a4	0.0005765951
60	0x39a9850b	0.00032333317
61	0x39c0f9ee	0.00036807306
62	0x3a051d5f	0.0005077924
63	0x3a01a840	0.00049460307
64	0x3a0ab4e1	0.0005291235
65	0x39dd5d63	0.00042221983
66	0x3a1c72ea	0.0005968051
67	0x39ba999d	0.00035591135
68	0x39b35543	0.00034205065
69	0x3a154047	0.0005693477
70	0x3a0ad2a8	0.00052956725
71	0x3a176d56	0.0005776485
72	0x39c91c5a	0.0003835883
73	0x39c36127	0.00037265682
74	0x39f63c32	0.00046965625
75	0x39d3ff86	0.00040435436
76	0x3a02df58	0.0004992387
77	0x39ad5def	0.00033067117
78	0x3a0ebd66	0.00054450927
79	0x39d85ad6	0.00041266409
80	0x39bdb7f1	0.00036185936
81	0x3a0ec5d5	0.00054463494
82	0x39f5fd2b	0.00046918666
83	0x39f9ac40	0.00047621317
84	0x3a24e79a	0.0006290615
85	0x3a03a6a4	0.0005022085
86	0x3a3681b9	0.0006962079
87	0x3a274230	0.0006380407
88	0x3a0a7739	0.0005282048
89	0x3a663381	0.00087814784
90	0x3a3ff946	0.00073232164
91	0x3a594007	0.0008287434
92	0x3a182210	0.00058034156
93	0x3a061d56	0.0005116066
94	0x3a35abc2	0.0006930196
95	0x3a03f505	0.0005033764
96	0x3a420fc9	0.0007402865
97	0x3a1a826c	0.0005894068
98	0x3a64ff6a	0.00087355694
99	0x3a387759	0.0007036827
100	0x3a294a19	0.000645788
101	0x3a74eb62	0.0009342936
102	0x3a2d131f	0.00066022755
103	0x3a5a667b	0.0008331311
104	0x3a297e90	0.00064656977
105	0x3a1080ea	0.0005512374
106	0x3a437cee	0.00074572756
107	0x3a03a9cb	0.00050225545
108	0x3a6a9272	0.00089482137
109	0x3a07878e	0.00051700405
110	0x3a4fc026	0.00079250557
111	0x3a5216a6	0.0008014239
112	0x3a2f3d41	0.0006684848
113	0x3a5bbf0d	0.0008382656
114	0x3a33803e	0.00068474177
115	0x3a32a897	0.0006815283
116	0x3a043535	0.0005043329
117	0x3a0da32f	0.00054030394
118	0x3a45283d	0.00075209496
119	0x39eb91a9	0.00044931218
120	0x3ab07862	0.0013463611
121	0x39f50570	0.00046734093
122	0x3a804d69	0.0009788695
123	0x3a9b70a4	0.0011859131
124	0x3a3fd41f	0.000731768
125	0x3a4eb152	0.0007884699
126	0x3a4029e2	0.000733046
127	0x3a380be2	0.00070208136
128	0x39d527be	0.00040656136
129	0x39c4394e	0.00037426729
130	0x3a2659df	0.00063457893
131	0x39f3ddaa	0.00046513724
132	0x3a8bbd77	0.0010661323
133	0x3a02ce6f	0.00049898674
134	0x3a60aa4d	0.00085702987
135	0x3a80cb20	0.0009826161
136	0x3a234080	0.0006227568
137	0x3a4f7d61	0.0007915106
138	0x3a31f84d	0.0006789014
139	0x3a3014b0	0.000671695
140	0x39f598d7	0.00046843916
141	0x39e357fd	0.0004336237
142	0x3a1d4ec8	0.0006000814
143	0x39db045c	0.00041774183
144	0x3a5584fb	0.0008145121
145	0x3a2a8905	0.0006505403
146	0x3a52e924	0.0008045605
147	0x3a4ab31c	0.0007732378
148	0x3a1f2ba2	0.00060718704
149	0x3a5836e5	0.0008247926
150	0x3a0b4f81	0.0005314276
151	0x3a24f686	0.00062928384
152	0x3a261cce	0.00063366897
153	0x39dbdb1a	0.00041934178
154	0x3a0e8026	0.0005435966
155	0x3a07dc72	0.000518269
156	0x3a469a46	0.0007576089
157	0x39faa5e8	0.00047807326
158	0x3a2cd33f	0.00065927574
159	0x3a2cc3a3	0.00065904314
160	0x39f039ca	0.00045819423
161	0x3a317a59	0.00067702454
162	0x3a0d746f	0.0005396073
163	0x3a1e9787	0.0006049801
164	0x3a0f6bab	0.0005471061
165	0x39c42ca7	0.00037417302
166	0x3a0eecbc	0.0005452146
167	0x3a020442	0.0004959741
168	0x3850fceb	4.9826613e-05
169	0x38effc5e	0.00011443415
170	0x38fc9964	0.000120448676
171	0x38cb8b3e	9.70573e-05
172	0x38aca7f3	8.232882e-05
173	0x384f83e9	4.9475497e-05
174	0x39539b63	0.00020180414
175	0x389d3994	7.497068e-05
176	0x387869bd	5.9226284e-05
177	0x3913d45a	0.0001409812
178	0x386228af	5.392049e-05
179	0x39127164	0.00013965886
180	0x37dc1275	2.6234638e-05
181	0x38bfb658	9.141554e-05
182	0x38c558ee	9.4102565e-05
183	0x38c6a728	9.472511e-05
184	0x388d5972	6.7400644e-05
185	0x38093aa0	3.2717944e-05
186	0x3932b1a9	0.00017041586
187	0x3880366c	6.1136525e-05
188	0x381e8df9	3.7802358e-05
189	0x38d15bb9	9.982981e-05
190	0x38212bab	3.842606e-05
191	0x38d79aec	0.00010280855
192	0x3778e2ea	1.4834784e-05
193	0x389c1131	7.441862e-05
194	0x38982970	7.255643e-05
195	0x38a10543	7.678058e-05
196	0x38603c70	5.346205e-05
197	0x37fc9ebc	3.0114657e-05
198	0x38ff9d4e	0.00012188648
199	0x38337227	4.278324e-05
200	0x37eab723	2.7980253e-05
201	0x38993520	7.305504e-05
202	0x37f3d0dc	2.9065115e-05
203	0x389d324d	7.4957126e-05
204	0x37342ba9	1.07390015e-05
205	0x3866086e	5.4844124e-05
206	0x38590d06	5.174896e-05
207	0x38960269	7.153006e-05
208	0x38387f75	4.3987722e-05
209	0x37c84646	2.3874582e-05
210	0x38e1cd67	0.00010767095
211	0x38023156	3.1040363e-05
212	0x37ee0bfd	2.8377393e-05
213	0x384a79e0	4.8274058e-05
214	0x37b17b59	2.1157482e-05
215	0x389ec558	7.570785e-05
216	0x371729e9	9.010059e-06
217	0x38233e36	3.8920167e-05
218	0x382305f0	3.8867758e-05
219	0x383fa2fc	4.568974e-05
220	0x3817e3c6	3.6213336e-05
221	0x37920ce7	1.7410564e-05
222	0x38a00243	7.629816e-05
223	0x37d6d5ad	2.5610289e-05
224	0x3798be84	1.8208528e-05
225	0x381063c4	3.442519e-05
226	0x37a003be	1.9075229e-05
227	0x385f9fca	5.331616e-05
228	0x37257b92	9.863537e-06
229	0x381d7413	3.753982e-05
230	0x38146d2f	3.5387635e-05
231	0x37e84f3c	2.7693452e-05
232	0x380ea481	3.4008644e-05
233	0x3783585c	1.5657562e-05
234	0x385aba4f	5.2148764e-05
235	0x37e55ef6	2.7343147e-05
236	0x37641b91	1.3596277e-05
237	0x37bd639b	2.2576938e-05
238	0x3784c78c	1.5828547e-05
239	0x381f1331	3.7926427e-05
240	0x3769a47f	1.3926182e-05
241	0x382e14e7	4.15043e-05
242	0x3816fd06	3.5998433e-05
243	0x37d1adc8	2.4995665e-05
244	0x38246688	3.9196137e-05
245	0x376dc8e2	1.41730725e-05
246	0x382f7457	4.18316e-05
247	0x37e8078d	2.7660071e-05
248	0x374e6ec6	1.2304348e-05
249	0x3786dd60	1.607713e-05
250	0x37928181	1.7464861e-05
251	0x3812c822	3.49955e-05
252	0x3a21af6d	0.0006167803
253	0x3a4e33a8	0.0007865974
254	0x3a087068	0.0005204738
255	0x3a6c5423	0.0009015223

exp_avg f4 [30, 30, 12]
0	0x3b1a1e96	0.0023516766
1	0xbb147d70	-0.0022657774
2	0xba522f8a	-0.0008017948
3	0x3927868b	0.00015976482
4	0x3b687abb	0.0035473544
5	0xbb5f7ac4	-0.0034100274
6	0x3b8ba3d5	0.0042614737
7	0x3a37cac9	0.00070111133
8	0xb9e6630e	-0.0004394282
9	0x3a685374	0.0008862533
10	0x3b3d8837	0.0028920302
11	0x3bd447d5	0.0064782896
12	0x3aef2729	0.0018245924
13	0x3a7c2a35	0.00096193264
14	0x3b2875aa	0.00257049
15	0xbaaa345d	-0.0012985576
16	0x39face92	0.00047837623
17	0xba7ef13b	-0.0009725277
18	0xba981b79	-0.0011604867
19	0x3a53b823	0.000807645
20	0x3b334e9e	0.0027360092
21	0x3b4dd439	0.0031407012
22	0x3b556e74	0.0032567056
23	0xba4f0f51	-0.00078987057
24	0x3ae266bc	0.0017273049
25	0x3aa7ef65	0.0012812434
26	0x3b055adb	0.0020348344
27	0x3ac8848d	0.0015298292
28	0x3aa9fec6	0.0012969605
29	0x3aac943b	0.0013166735
30	0x3ad5f8a7	0.0016324715
31	0x3ab95c0f	0.0014141815
32	0x3ab70ef0	0.0013966244
33	0x3ad6f3cc	0.0016399561
34	0x3a8526c7	0.0010158651
35	0x3ae0fb0f	0.0017164665
36	0x3aaccb85	0.0013183212
37	0xbb14b9ff	-0.002269387
38	0xbacf036e	-0.0015793869
39	0x3b30a605	0.0026954424
40	0xbaaab19f	-0.0013022906
41	0x39bb97e0	0.00035780575
42	0xbb03d6eb	-0.0020117115
43	0xbb1b9d5f	-0.0023744924
44	0x3b3cdc22	0.0028817733
45	0x3aaa71ab	0.0013003846
46	0x3b2e9b1f	0.0026642752
47	0xba3f5453	-0.0007298637
48	0xbab94bf1	-0.0014137012
49	0xbb289a25	-0.0025726643
50	0xbbe25e0b	-0.0069081835
51	0xbb55b569	-0.003260935
52	0x3b00affc	0.0019636145
53	0xbb389b33	-0.0028168678
54	0x3bb682d1	0.0055697937
55	0xbb0055ea	-0.0019582459
56	0x3a60073d	0.00085460005
57	0x3b83105f	0.0039997543
58	0x3bd8727b	0.006605444
59	0x3b719429	0.0036861992
60	0x3b946be5	0.0045294636
61	0x3a932639	0.0011226601
62	0xbb13b654	-0.0022539096
63	0x3a015979	0.0004934292
64	0xbbb33b4b	-0.0054697148
65	0x3b00b9b8	0.0019641947
66	0xbac778aa	-0.0015218456
67	0x3bd32921	0.006444112
68	0x3b713916	0.0036807708
69	0xbba515a7	-0.0050379816
70	0x3b58e03c	0.0033092638
71	0xbbe443d1	-0.006966092
72	0xbb07dc2e	-0.0020730603
73	0xbab5e634	-0.001387781
74	0x3ab4f78f	0.0013806688
75	0xba90db4c	-0.0011051684
76	0xb8e68b32	-0.00010993182
77	0xbb01b75f	-0.0019793136
78	0xbb1821c8	-0.0023213495
79	0xbb2b178a	-0.002610656
80	0xbaa8f8b9	-0.0012891508
81	0xba3b26d6	-0.0007139271
82	0xba23d884	-0.000625022
83	0xbb0b8497	-0.0021288747
84	0x3b2cf900	0.0026393533
85	0xb8a28ad9	-7.750624e-05
86	0xb9c09a7a	-0.00036736188
87	0xbb0f8aee	-0.0021902877
88	0xba590db5	-0.00082799356
89	0x3aaf04fb	0.0013352925
90	0x3ba5cfaa	0.005060156
91	0xba0169af	-0.00049367076
92	0xbba829a9	-0.0051319194
93	0x3b5e142d	0.0033886537
94	0x3b2a97fe	0.0026030536
95	0x3b452ca4	0.0030086422
96	0x3a2237bc	0.00061881146
97	0x3a6e08d2	0.0009080294
98	0x3b89dd0d	0.0042072595
99	0x3b3571d5	0.0027686257
100	0xbb4234cf	-0.0029633527
101	0x394b40b5	0.00019383694
102	0xbb0e9d65	-0.0021761295
103	0x3acf54fb	0.0015818173
104	0xba4d20d0	-0.0007825019
105	0x3b9a7643	0.004713805
106	0x3a0a365c	0.00052723824
107	0xbbbf655d	-0.005840941
108	0x3ac260fe	0.0014829931
109	0xbaee46d2	-0.0018179065
110	0x3aa4411a	0.0012531609
111	0x3ae7dc0a	0.0017689478
112	0xb9b2ba32	-0.00034089532
113	0x39836c72	0.00025067065
114	0x3b89ba5b	0.0042031235
115	0x3a875c66	0.001032722
116	0x39a0ec13	0.00030693467
117	0xb9f684ff	-0.00047019866
118	0x3b89f125	0.004209655
119	0xbb06a612	-0.0020545763
120	0x3a8236f4	0.000993459
121	0xbb3f9a42	-0.0029236232
122	0xba7d7763	-0.0009668974
123	0xbbb5e13b	-0.005550531
124	0x3b23e27b	0.002500682
125	0x3baa3d53	0.0051952987
126	0xb938ab3e	-0.000176114
127	0x3b7bc129	0.0038414693
128	0xbc12e3cd	-0.008965445
129	0x3b964ecc	0.00458703
130	0xbaf8d1b3	-0.0018983394
131	0x3bbc6bdd	0.005750163
132	0x3b0c19ab	0.0021377604
133	0x3b999eea	0.0046881335
134	0x3a1d0a4a	0.0005990608
135	0xbb4e857b	-0.0031512666
136	0xba351118	-0.0006907149
137	0xbb72f1b8	-0.0037070345
138	0x39cd6268	0.00039173965
139	0x3a6a4346	0.0008936416
140	0x3a527432	0.00080281787
141	0xbae00e6b	-0.0017094141
142	0x3b32b17b	0.002726643
143	0x3b27b5e1	0.0025590586
144	0x3bd69b87	0.006549302
145	0xbb719dfb	-0.0036867845
146	0x38a50412	7.868571e-05
147	0xbb04f8b9	-0.0020289852
148	0xbb3d182c	-0.002885352
149	0x3b62269e	0.003450788
150	0xbb045eda	-0.0020198137
151	0x3bf8dfe7	0.0075950506
152	0xbb70f5ef	-0.0036767682
153	0x3a000f38	0.000488508
154	0x3af576ad	0.0018727385
155	0xbbb1b1a1	-0.0054227863
156	0x3abc1dae	0.0014352107
157	0xba01e0eb	-0.0004954475
158	0xbb438614	-0.0029834555
159	0xbb072734	-0.0020622732
160	0x3a4cf1c5	0.0007818009
161	0xbb82f132	-0.003996038
162	0xba410ed6	-0.00073645764
163	0x3a55d4c0	0.00081570074
164	0xba99b1ce	-0.0011725964
165	0xbba0c6d8	-0.0049065165
166	0xba38c9b8	-0.00070491014
167	0x3b1ea0c3	0.0024204708
168	0xbafd6f2b	-0.0019335499
169	0xbaae8b0e	-0.0013316588
170	0x3ac5c096	0.0015087302
171	0xba48ecbd	-0.0007664671
172	0xbb267aad	-0.002540271
173	0xbb18fdae	-0.0023344564
174	0x3b4dd328	0.0031406377
175	0x3b46b841	0.0030322226
176	0xbae9aacf	-0.0017827394
177	0x3a50fb15	0.00079719845
178	0xbb312d77	-0.0027035156
179	0xbb2b126a	-0.0026103505
180	0x3b24d6af	0.0025152375
181	0x3bb6a2d8	0.0055736117
182	0xbb6af33d	-0.0035850548
183	0xba51a8ec	-0.00079978886
184	0x39f14cd4	0.00046024343
185	0xbb90cdac	-0.0044190492
186	0x3b9172c3	0.0044387295
187	0x3afc00e6	0.0019226342
188	0x3a7ded78	0.00096865697
189	0x388a7c65	6.603523e-05
190	0xbb60c386	-0.0034296229
191	0x3b9233f5	0.00446176
192	0xb8194350	-3.6540732e-05
193	0xbb746142	-0.0037289415
194	0xbac431e6	-0.0014968484
195	0x3b1a8b1e	0.0023581455
196	0xbb84f412	-0.0040574158
197	0x3b552e85	0.0032528949
198	0xb994e331	-0.0002839803
199	0x3b62beb3	0.003459853
200	0x3ad6682e	0.0016357952
201	0xbad3949c	-0.0016142312
202	0x3a642309	0.00087027304
203	0xbb6e1b68	-0.0036332253
204	0xbadf6d91	-0.0017046203
205	0xbab1c03e	-0.0013561321
206	0xbab8ecfc	-0.0014108713
207	0xb8e0e593	-0.00010723914
208	0x383e6054	4.5389243e-05
209	0xba0613bc	-0.0005114635
210	0xbb5773ca	-0.0032875412
211	0xbacb0cce	-0.0015491487
212	0x3abcf39f	0.0014415866
213	0x39a341a2	0.00031138683
214	0xbb534c89	-0.0032241663
215	0xbb481c0a	-0.003053429
216	0x3aa3dcad	0.001250168
217	0x3a0e12e6	0.0005419686
218	0xbab89126	-0.0014081344
219	0x3bdc5d91	0.006725021
220	0xb99f16ed	-0.00030343924
221	0xbadf79ae	-0.0017049813
222	0xbb7adf28	-0.0038279984
223	0x3bb3c8eb	0.005486598
224	0x3bb05087	0.0053806934
225	0x3ad9c77d	0.0016615238
226	0xbb015248	-0.0019732881
227	0xbb4c00a3	-0.003112831
228	0x3aae6567	0.0013305367
229	0x3b6ad788	0.0035834033
230	0x3b84085a	0.004029316
231	0xb93ba32b	-0.00017894495
232	0xbb69e7d1	-0.0035691152
233	0xbb97ef69	-0.004636694
234	0x3ac91eb2	0.0015344231
235	0x3a221db0	0.00061842334
236	0x3bdfeb4c	0.0068334695
237	0x3aa36ff5	0.0012469279
238	0xbb1483fc	-0.0022661677
239	0xbb767622	-0.0037607034
240	0x3bc87308	0.0061172284
241	0x3b1db3f8	0.0024063569
242	0xbb56dae7	-0.0032784285
243	0xbb104960	-0.002201639
244	0x3b0620eb	0.0020466398
245	0x390a07fe	0.00013163683
246	0x3b9c4ec4	0.004770132
247	0xbb975c05	-0.004619124
248	0xbbbe4d09	-0.005807523
249	0xbaf4c53f	-0.0018674507
250	0x3b3cdb9b	0.0028817418
251	0x3c319642	0.010839047
252	0xbb2b5596	-0.0026143542
253	0x3b881533	0.004152918
254	0x38d6132e	0.00010207888
255	0xbab0da7f	-0.0013492851

exp_avg_sq f4 [30, 30, 12]
0	0x39908eeb	0.00027572302
1	0x3998a10a	0.00029111683
2	0x39854b23	0.00025423718
3	0x398fa029	0.00027394414
4	0x39476051	0.00019014
5	0x39485b9b	0.00019107612
6	0x39a332c1	0.00031127597
7	0x3985c131	0.00025511676
8	0x397bcace	0.00024012776
9	0x39721fe6	0.00023090802
10	0x3993e57a	0.00028208998
11	0x39d8ec22	0.00041374663
12	0x38f68e5c	0.000117567106
13	0x3921be8f	0.00015425145
14	0x3914984f	0.00014171119
15	0x3914f6b5	0.00014206285
16	0x39262400	0.00015844405
17	0x393210f5	0.0001698172
18	0x39555c9c	0.00020347763
19	0x39446fe3	0.00018733698
20	0x39577589	0.00020547783
21	0x396607ac	0.00021937367
22	0x3915b322	0.0001427648
23	0x392ff09d	0.00016778936
24	0x395cc573	0.0002105439
25	0x3966d6c6	0.00022014519
26	0x39524e58	0.00020056346
27	0x395fe29b	0.00021351354
28	0x396ea86e	0.00022760194
29	0x3955f988	0.0002040622
30	0x39621a29	0.00021562785
31	0x396319b1	0.00021657978
32	0x396094a7	0.00021417682
33	0x39562d95	0.00020425611
34	0x39580f20	0.00020605
35	0x39570e78	0.00020509388
36	0x39264064	0.00015854981
37	0x3915ccec	0.00014286087
38	0x3968b261	0.00022191695
39	0x394f8109	0.00019789128
40	0x390c8b69	0.00013403375
41	0x3908e117	0.00013053823
42	0x39242b7e	0.00015656461
43	0x3928e2b0	0.00016106176
44	0x394920d1	0.00019181079
45	0x3911fe6a	0.00013923054
46	0x397c481e	0.00024059459
47	0x392e5d95	0.00016628795
48	0x39568989	0.00020459866
49	0x396262be	0.00021589824
50	0x399130a2	0.0002769279
51	0x396d7f7d	0.00022649574
52	0x39595d8e	0.00020729585
53	0x395209e7	0.0002003085
54	0x3978b2a3	0.0002371767
55	0x39588043	0.00020647146
56	0x3924bdab	0.00015710916
57	0x395434cb	0.00020237562
58	0x396cff8a	0.0002260191
59	0x39cbb19b	0.00038851504
60	0x395b85b8	0.00020935282
61	0x394124c5	0.00018419612
62	0x395197fe	0.00019988415
63	0x398b9850	0.00026625628
64	0x3998fc54	0.00029179698
65	0x39b0b14a	0.00033701427
66	0x394d8774	0.00019600784
67	0x395689a5	0.00020459907
68	0x3978dc49	0.00023733186
69	0x399103b2	0.00027659308
70	0x399ec972	0.00030286197
71	0x39858c6b	0.00025472356
72	0x395760a2	0.00020539996
73	0x3957804e	0.00020551795
74	0x39846d8c	0.0002525862
75	0x3985abb0	0.00025495654
76	0x3945353a	0.00018807212
77	0x394fea12	0.00019828256
78	0x3946ada8	0.00018947443
79	0x3994d75b	0.00028389212
80	0x3952ae76	0.00020092152
81	0x395084e6	0.00019885934
82	0x3986d4ef	0.0002571712
83	0x39712726	0.00022998135
84	0x39859e15	0.00025485517
85	0x393e1639	0.0001812809
86	0x395acf1d	0.00020867256
87	0x3976c9bd	0.00023535542
88	0x3970a70e	0.00022950416
89	0x393238cb	0.0001699656
90	0x395f32d1	0.00021285868
91	0x3960124f	0.00021369125
92	0x3925bd57	0.00015806161
93	0x3950f7a2	0.00019928676
94	0x398d11d9	0.00026906913
95	0x39a078ed	0.00030607675
96	0x396d7c04	0.0002264828
97	0x395a8beb	0.00020842224
98	0x39b46dbc	0.00034414034
99	0x39122a51	0.00013939409
100	0x3939cd1a	0.00017719381
101	0x391f8a27	0.00015214887
102	0x398ab162	0.00026453572
103	0x395b7561	0.00020929195
104	0x393a282d	0.00017753309
105	0x39531dc4	0.00020133617
106	0x393d6aa4	0.00018064171
107	0x3921ca8a	0.00015429608
108	0x39311a25	0.00016889775
109	0x3918c5bd	0.00014569513
110	0x39769ec9	0.0002351954
111	0x396aa4c5	0.0002237736
112	0x3956d9d6	0.0002048978
113	0x394e32fb	0.00019664683
114	0x395eb81d	0.00021240157
115	0x397217d4	0.00023087795
116	0x3953e62f	0.00020208278
117	0x394508e6	0.00018790699
118	0x396e9fbf	0.00022756959
119	0x39a7b112	0.0003198465
120	0x3932809a	0.0001702331
121	0x395f263d	0.00021281182
122	0x398ab96b	0.00026459558
123	0x39463463	0.00018902267
124	0x3939ba34	0.00017712341
125	0x3937bd8c	0.00017522852
126	0x3946d756	0.0001896297
127	0x39509b5b	0.000198943
128	0x3966a7c5	0.00021997008
129	0x398abae7	0.00026460664
130	0x395ffab4	0.00021360331
131	0x3947efd2	0.00019067459
132	0x3920ae1a	0.00015323647
133	0x393fd726	0.00018295328
134	0x3921c563	0.00015427689
135	0x39909f7d	0.00027584648
136	0x3969ca37	0.00022295942
137	0x393a59fd	0.00017771866
138	0x397297c7	0.0002313546
139	0x39503ef9	0.00019859885
140	0x393919bf	0.00017652566
141	0x3956b28e	0.00020475147
142	0x3969a8f4	0.00022283552
143	0x39687600	0.00022169203
144	0x39b9f8f7	0.00035471443
145	0x399dfb29	0.00030132502
146	0x397749e6	0.00023583285
147	0x395113ec	0.00019939215
148	0x39947cd9	0.00028321779
149	0x39ad3d61	0.00033042862
150	0x39bb7102	0.00035751617
151	0x39b508fc	0.00034529704
152	0x397cb680	0.0002410058
153	0x39628d83	0.00021605757
154	0x39995ff1	0.00029253916
155	0x39bf77f2	0.00036519725
156	0x396f5273	0.00022823531
157	0x398a2928	0.00026352075
158	0x3989b1a1	0.0002626302
159	0x393c140a	0.00017936542
160	0x398291cf	0.00024904168
161	0x39542144	0.00020230288
162	0x3944f7b5	0.00018784295
163	0x395cc94a	0.00021055821
164	0x39479d82	0.00019036795
165	0x394ae8bc	0.00019350922
166	0x399d2f24	0.00029980496
167	0x39564ac7	0.00020436487
168	0x39657969	0.0002188437
169	0x394fd0a2	0.0001981878
170	0x3949209b	0.00019181
171	0x396e25af	0.00022711487
172	0x398d625b	0.00026966896
173	0x396f345e	0.00022812324
174	0x395e8eaf	0.00021224724
175	0x393fafa3	0.00018280609
176	0x3944e781	0.00018778259
177	0x3983cada	0.00025137403
178	0x396c819f	0.00022555001
179	0x39569a7d	0.00020466182
180	0x39ab1a8c	0.0003263544
181	0x39a3cc0d	0.00031241812
182	0x397e79b3	0.00024268664
183	0x398ac00e	0.00026464503
184	0x394cc149	0.0001952696
185	0x3982e63a	0.00024967064
186	0x39920f6c	0.0002785878
187	0x39b60341	0.0003471617
188	0x39c65f0a	0.00037836313
189	0x39654ba9	0.00021867327
190	0x39824a4c	0.00024850888
191	0x3987cf38	0.00025903597
192	0x394e01cc	0.0001964636
193	0x39770229	0.0002355656
194	0x3969a4fc	0.00022282073
195	0x39659e53	0.00021898122
196	0x39638fca	0.00021701973
197	0x398909d2	0.00026137993
198	0x39626470	0.00021590455
199	0x391e55a7	0.00015099962
200	0x3956e079	0.00020492253
201	0x391320bb	0.00014031206
202	0x396b3a21	0.00022433001
203	0x39848a6f	0.00025280143
204	0x3968fa71	0.00022218541
205	0x398ab603	0.0002645702
206	0x394d4f77	0.00019579926
207	0x3977f9bb	0.00023648787
208	0x3937003b	0.00017452326
209	0x396a64c2	0.00022353514
210	0x399cb5b9	0.00029890033
211	0x39672eb6	0.00022047278
212	0x395dcfdc	0.00021153636
213	0x39792e15	0.00023763657
214	0x3971eb63	0.0002307124
215	0x39777bfb	0.00023601942
216	0x399f4e5e	0.0003038523
217	0x39550621	0.00020315546
218	0x39688843	0.00022176006
219	0x398c564c	0.00026767177
220	0x39960a16	0.00028617744
221	0x3976051e	0.00023462294
222	0x39985677	0.0002905612
223	0x398d7e9f	0.00026987956
224	0x3990a365	0.0002758756
225	0x39544732	0.00020244418
226	0x3988c436	0.0002608613
227	0x39b77350	0.00034990394
228	0x39563d07	0.00020431365
229	0x38e0f621	0.000107269974
230	0x390267d1	0.00012436441
231	0x390a3e2b	0.00013183865
232	0x39262bbe	0.00015847289
233	0x394cb280	0.00019521452
234	0x392290da	0.00015503485
235	0x391720c0	0.00014412683
236	0x38d3cabd	0.00010099027
237	0x38f5450c	0.00011695371
238	0x391a54a4	0.00014718116
239	0x391f471b	0.0001518991
240	0x39973a2a	0.000288443
241	0x39c3fc6e	0.00037381373
242	0x39a3c59b	0.0003123701
243	0x39a8838d	0.0003214147
244	0x397985e1	0.00023796364
245	0x39b28c98	0.00034055556
246	0x39bd3eaf	0.00036095592
247	0x39ac3cb7	0.00032851633
248	0x39b9c931	0.0003543585
249	0x39a7b5ac	0.00031988078
250	0x39c6f9f3	0.0003795173
251	0x39c1b77a	0.0003694853
252	0x3971f1ee	0.00023073677
253	0x398eab22	0.00027211854
254	0x399c66a0	0.000298311
255	0x39a48605	0.0003138037

exp_avg f4 [1, 30, 12]
0	0x3bbad164	0.005701231
1	0x3c01d78f	0.007924928
2	0x3cd01ce1	0.025404396
3	0x37efb06c	2.8573173e-05
4	0xbc6fd5a0	-0.0146383345
5	0xbb2a50df	-0.0025988144
6	0xbb577606	-0.0032876744
7	0x3b3130e1	0.002703719
8	0x3bab346b	0.0052247546
9	0xbc8b9935	-0.017040828
10	0xbc1d8b72	-0.009615766
11	0xb9b40a6d	-0.00034340043
12	0x3c7d1d83	0.015448931
13	0xbac80320	-0.001525972
14	0xbc09dd12	-0.008414524
15	0x3c1b76a8	0.009488739
16	0xbb47da53	-0.0030495122
17	0x3d100381	0.03515959
18	0xbc4d6e48	-0.0125385
19	0xbc1969f5	-0.009363641
20	0xbb4a24fb	-0.0030844796
21	0xbc009c2d	-0.007849735
22	0x3c870ea7	0.016486479
23	0xbcfb8cfc	-0.030706875
24	0x3bd9f38d	0.006651348
25	0x3bf23c9d	0.0073924796
26	0xbc102976	-0.008798948
27	0xbcd972b4	-0.026543953
28	0xbc552ebb	-0.01301163
29	0x3ab17bd3	0.0013540931
30	0x3c393b26	0.011305606
31	0x3c4d851b	0.012543942
32	0x3c917e68	0.01776047
33	0x3ae13875	0.0017182963
34	0xbbff7a8f	-0.0077965925
35	0xbb2d2b69	-0.002642358
36	0xbb9160e6	-0.0044366
37	0x3d0fdbdf	0.035121795
38	0xbd14062f	-0.03613871
39	0x3b5941bd	0.0033150755
40	0x3c321d57	0.010871253
41	0xbbda5c65	-0.0066638463
42	0x3c958e58	0.018256351
43	0x3aceddd6	0.0015782665
44	0xbc899255	-0.01679341
45	0xbcbfff12	-0.023437057
46	0x3ca09f84	0.019607313
47	0xbaab56a2	-0.0013072083
48	0xbc62e870	-0.013849363
49	0x3b3bc940	0.002865389
50	0xbcd5033b	-0.026002517
51	0x3c363bda	0.011122668
52	0xbbd02cef	-0.0063530128
53	0xbc719410	-0.0147447735
54	0x3be68ea2	0.007036046
55	0x3d06dac4	0.032923475
56	0x3c26ec44	0.010188166
57	0xbb509782	-0.0031828587
58	0x3c56e1ff	0.013115405
59	0xbc5822a5	-0.013191854
60	0xbce96118	-0.02848868
61	0xbc3fe23e	-0.011711655
62	0x3c5471e5	0.012966608
63	0xbcb106c1	-0.021609666
64	0x37d07e00	2.4854206e-05
65	0x3cee3621	0.029078545
66	0xbb0f564b	-0.0021871503
67	0x3c867e83	0.016417747
68	0xba401da5	-0.0007328636
69	0xbc09a9ae	-0.008402271
70	0x3c3196ae	0.0108391475
71	0x3b763ced	0.0037572936
72	0x3ab044b6	0.0013448212
73	0xbb4ae723	-0.0030960522
74	0x3b84e380	0.0040554404
75	0x3c404c5e	0.011736957
76	0x3a94fd70	0.0011367034
77	0xbb12cc8a	-0.0022399747
78	0xb822e6bd	-3.88387e-05
79	0xbc132f27	-0.00898341
80	0xbbf35289	-0.0074256104
81	0x3a3f5f10	0.0007300237
82	0x3a665f59	0.00087880116
83	0x3af252b8	0.0018487787
84	0x39b5f675	0.00034706635
85	0x3b922239	0.004459646
86	0xbbbaf60c	-0.0057056006
87	0xbab43122	-0.0013747553
88	0xbc6d9aa3	-0.0145022
89	0xbbf24c2a	-0.0073943334
90	0xbbd6e8bf	-0.006558507
91	0x3aaf4036	0.0013370577
92	0x3c21638d	0.009850395
93	0xbbd79409	-0.0065789265
94	0xba8f8ee3	-0.0010952618
95	0x3cdef28e	0.027215268
96	0x3c3e0e21	0.011600048
97	0xbc8e2717	-0.017352624
98	0xba973532	-0.0011536239
99	0xba6f9d88	-0.00091406005
100	0xbc225b26	-0.009909427
101	0x3bbbfc69	0.0057368767
102	0xbc7cbaa5	-0.015425359
103	0x3cb49541	0.022043826
104	0xba714583	-0.00092037785
105	0xbb90352d	-0.0044008703
106	0x3c4caff8	0.012493126
107	0xbaf07845	-0.001834639
108	0xbb4e57fb	-0.0031485546
109	0xba75908a	-0.00093675463
110	0xbca1c2a4	-0.019746132
111	0x3cc50bc6	0.024053466
112	0xbbbea9dc	-0.0058185887
113	0x3be22ff9	0.0069026914
114	0x3c0deb0e	0.008661998
115	0xbba7f8f6	-0.005126114
116	0x3b9f3016	0.004858027
117	0x39453ece	0.0001881078
118	0x3be25cda	0.0069080414
119	0xbc89f11c	-0.016838603
120	0x3bf4f575	0.00747555
121	0x3c06987f	0.008215069
122	0xbcbb6950	-0.022877365
123	0xbb86a242	-0.004108698
124	0xbae2e0b0	-0.0017309394
125	0xbc3862fd	-0.011254069
126	0x3c3cc9de	0.011522738
127	0xbc0dc904	-0.008653883
128	0xbc5c8e20	-0.01346162
129	0x3c4f8a99	0.012667322
130	0x3cadf870	0.021236628
131	0x3a7130fe	0.0009200721
132	0xba2399d2	-0.00062408776
133	0xb944c160	-0.00018764054
134	0x3a0f514d	0.0005467132
135	0xba1881f2	-0.0005817703
136	0x3a8fb67f	0.0010964422
137	0xba51fc40	-0.00080103055
138	0x3a0091f1	0.00049045595
139	0x3a24178d	0.0006259613
140	0xb9eb7018	-0.0004490621
141	0xb92669b9	-0.00015870378
142	0xba4ac04d	-0.00077343435
143	0x3a506a20	0.0007950384
144	0xbb1f8eb7	-0.002434654
145	0x3ac1279b	0.0014736535
146	0x3aad18a4	0.0013206196
147	0xba2d9030	-0.0006620912
148	0xb908b49f	-0.00013037257
149	0x3b8268f0	0.0039797947
150	0x39700f5f	0.0002289391
151	0xba139012	-0.0005629073
152	0x3a3651f1	0.0006954959
153	0xbaad5dd1	-0.0013226812
154	0xbb8f1325	-0.004366296
155	0x3afbe6b0	0.001921853
156	0x3b811257	0.003938954
157	0x3c5ec9ff	0.013597964
158	0x3b74a4ac	0.0037329597
159	0xbc1ccde8	-0.009570576
160	0x3a2e67f2	0.00066530623
161	0xbc01877d	-0.007905838
162	0xbbb91d57	-0.0056492495
163	0x3c1de238	0.009636454
164	0x3bf85382	0.0075783143
165	0xbb805187	-0.003915969
166	0xbb146619	-0.0022643863
167	0xbc208078	-0.009796254
168	0x39a28863	0.00031000664
169	0xbba911cf	-0.0051595937
170	0xbb146a7b	-0.0022646475
171	0xb909fbb9	-0.00013159112
172	0x3b3be023	0.0028667531
173	0xb9c90ff6	-0.000383496
174	0xbc3bd041	-0.011463226
175	0xbae30da5	-0.0017322792
176	0x3b4b2e77	0.0031003037
177	0x3be5908e	0.0070057577
178	0x38c3e002	9.340049e-05
179	0x3bfe3d42	0.0077587673
180	0x3b383c28	0.0028112028
181	0xbc9f0239	-0.01941024
182	0xbba65062	-0.0050755003
183	0xbcd7413e	-0.026276227
184	0x3d3b3e10	0.045713484
185	0x3a9e6bae	0.0012086534
186	0xbc54ab93	-0.01298036
187	0xbbf88b09	-0.0075849337
188	0xbc808227	-0.015687061
189	0x3c4b2ea7	0.0124012595
190	0x3c08113b	0.008304889
191	0x3c87c729	0.01657446
192	0x3c40929f	0.011753707
193	0x3c4ec004	0.012619022
194	0xbc16aefa	-0.009196991
195	0x3c48dd83	0.012259844
196	0xbc665d35	-0.014060308
197	0x3b986bfd	0.004651545
198	0x3cb8e2f0	0.02256915
199	0xbb738b44	-0.0037161866
200	0x3c9c5326	0.019082617
201	0xbb7e6d1e	-0.0038822363
202	0xbca763af	-0.020433275
203	0xbd013824	-0.03154768
204	0xb9b8b37f	-0.0003522895
205	0xbc1fd7ed	-0.009756071
206	0x3cda42a8	0.026643112
207	0xbcf84d2e	-0.03031024
208	0x3d30e8c1	0.04319072
209	0xbaeeaf43	-0.0018210191
210	0xbc72d0a0	-0.014820248
211	0x3b881373	0.004152709
212	0x3afebd11	0.0019435008
213	0xbc1b1b73	-0.009466994
214	0xbbd44447	-0.006477866
215	0xbb327272	-0.002722886
216	0x3cb50485	0.022096882
217	0xbd0c8159	-0.034303043
218	0xbc013724	-0.007886682
219	0x3c816eaf	0.015799848
220	0xba3d30cd	-0.000721705
221	0xbc335703	-0.010946038
222	0x3c873617	0.016505284
223	0x3bf0dd0e	0.0073505705
224	0xbcf1faad	-0.029538477
225	0x3cb2a504	0.021807201
226	0x3b1cefad	0.0023946569
227	0xbb3190f6	-0.002709446
228	0xbc2df4bf	-0.010617434
229	0x3b26a882	0.0025430028
230	0xbc0f000a	-0.008728037
231	0xbb6fee17	-0.0036610418
232	0x3be404b2	0.0069585675
233	0xbc2ea3c0	-0.010659158
234	0xbb65a37c	-0.0035040071
235	0x3c3fe541	0.011712373
236	0x3c4544b5	0.012040307
237	0x3b35c309	0.0027734658
238	0x3b0405b1	0.0020144994
239	0xba503b15	-0.0007943374
240	0xbc761a50	-0.015020922
241	0x392e2cf3	0.00016610678
242	0x3ba223e2	0.004948125
243	0x3caadff1	0.020858737
244	0x3b27561c	0.0025533503
245	0x3bb65a83	0.005564989
246	0xb8e8d894	-0.00011102963
247	0xbcc9c305	-0.024629125
248	0x3c2a5aed	0.010397655
249	0xbc9c94b1	-0.01911387
250	0x3c1a20d2	0.009407239
251	0x3ba38156	0.0049897833
252	0xba731a63	-0.0009273646
253	0xbbefc974	-0.0073177163
254	0x3badbe28	0.0053022094
255	0xbb5f5da8	-0.0034082923

exp_avg_sq f4 [1, 30, 12]
0	0x3bb52e26	0.005529183
1	0x3b27fcf8	0.002563296
2	0x3be22f64	0.006902622
3	0x3a93d9d3	0.0011280127
4	0x3c3e494d	0.011614156
5	0x3b81826e	0.003952316
6	0x3b3c3a9e	0.0028721462
7	0x3bc68e08	0.006059412
8	0x3ac013d1	0.0014654343
9	0x3ca6ab68	0.020345405
10	0x3c0a6b96	0.008448502
11	0x3ba4ead8	0.0050328784
12	0x3cbb818d	0.022888923
13	0x3c817521	0.015802922
14	0x3c307abd	0.010771451
15	0x3c51ddc5	0.012809222
16	0x3c6b791b	0.0143721355
17	0x3c73ade1	0.014872999
18	0x3cdc0169	0.026856141
19	0x3caa86b5	0.020816186
20	0x3bb8c533	0.0056387424
21	0x3c8f5346	0.017495763
22	0x3c5d32a7	0.013500846
23	0x3ca16335	0.019700626
24	0x3c20f29d	0.0098234685
25	0x3b2e8a04	0.0026632557
26	0x3c5910f3	0.01324867
27	0x3b8e3dab	0.0043408475
28	0x3be5521f	0.006998315
29	0x3bda632f	0.0066646556
30	0x3bf72abb	0.0075429357
31	0x3cb7c9ef	0.022435157
32	0x3c7d4da1	0.015460403
33	0x3bb726b0	0.0055893287
34	0x3bc7d369	0.0060982
35	0x3bb5bd3c	0.00554624
36	0x3ca4ff67	0.020141317
37	0x3c501f68	0.0127028
38	0x3c73ff2a	0.014892379
39	0x3c502e9e	0.012706427
40	0x3c52ca38	0.0128655955
41	0x3cb43c89	0.022001522
42	0x3cb7621f	0.022385655
43	0x3c3d65ac	0.011559885
44	0x3c87cec6	0.01657809
45	0x3c803caf	0.015653936
46	0x3c9c5732	0.019084547
47	0x3c237b12	0.009978073
48	0x3c52722a	0.012844602
49	0x3bc365bd	0.005963056
50	0x3cce210f	0.025162248
51	0x3c892628	0.016741827
52	0x3b97a00b	0.004627233
53	0x3c51ded4	0.012809474
54	0x3b9f822b	0.004867812
55	0x3c2a0c0f	0.010378852
56	0x3bc1c678	0.005913552
57	0x3c6b0288	0.014343865
58	0x3c3462dd	0.011009899
59	0x3b1d0464	0.0023958916
60	0x3cb38f1b	0.021918824
61	0x3cb0c3f3	0.02157781
62	0x3c86638c	0.01640489
63	0x3c632d6e	0.013865812
64	0x3bd1bd88	0.0064007677
65	0x3c89abbc	0.016805522
66	0x3cb5e2eb	0.02220293
67	0x3cdfc3b5	0.027315
68	0x3c8bfa6d	0.017087186
69	0x3c821352	0.015878353
70	0x3c5da2ac	0.0135275535
71	0x3c13dfd6	0.009025535
72	0x3b4db9b6	0.003139121
73	0x3b85f4ed	0.0040880353
74	0x3c207e1d	0.009795693
75	0x3c561017	0.01306536
76	0x3bdccff3	0.0067386567
77	0x3b58681d	0.003302104
78	0x3b710649	0.0036777428
79	0x3b760da4	0.0037544752
80	0x3c006498	0.007836483
81	0x3b52157c	0.0032056263
82	0x3bac1967	0.0052520516
83	0x3b0efadf	0.0021817011
84	0x3c4a3dc3	0.012343827
85	0x3c9d37b3	0.019191599
86	0x3c740f15	0.014896174
87	0x3b900e48	0.0043962337
88	0x3c247ae1	0.010039062
89	0x3b497e65	0.0030745503
90	0x3ca4df36	0.020125967
91	0x3c6b65a8	0.014367498
92	0x3c3a406e	0.0113679
93	0x3c645a08	0.013937481
94	0x3b953af1	0.0045541455
95	0x3c87b9d2	0.016568098
96	0x3cf005b4	0.029299594
97	0x3c91ca89	0.017796772
98	0x3c2967b6	0.010339668
99	0x3c659f1a	0.014014984
100	0x3ca878d9	0.020565437
101	0x3ced99e0	0.029004037
102	0x3d067280	0.03282404
103	0x3c7980c3	0.015228453
104	0x3c8e28ad	0.01735338
105	0x3c59be35	0.013289978
106	0x3c8c06e2	0.017093126
107	0x3cdb766c	0.026789866
108	0x3c391da1	0.011298568
109	0x3c72e1e9	0.014824369
110	0x3cf2fc3e	0.029661294
111	0x3cf82bc2	0.030294303
112	0x3cb09380	0.021554708
113	0x3c5e53ca	0.013569782
114	0x3c636668	0.013879396
115	0x3cb2f473	0.021845078
116	0x3cc0f332	0.023553465
117	0x3caee41f	0.021349011
118	0x3cbc321d	0.022973115
119	0x3c4d7c34	0.012541819
120	0x3c2c09d3	0.010500389
121	0x3be7543c	0.007059602
122	0x3b34cb16	0.002758687
123	0x3c1c067a	0.0095230285
124	0x3b0a2f4d	0.0021085322
125	0x3c97071c	0.018436007
126	0x3bf55869	0.007487346
127	0x3c1e2515	0.009652396
128	0x3c63dc9d	0.013907579
129	0x3be63c1f	0.00702621
130	0x3c00af54	0.0078543015
131	0x3b766ce4	0.0037601525
132	0x39413cb8	0.00018428534
133	0x38a6bd86	7.950798e-05
134	0x39a15a9e	0.00030775828
135	0x391b3645	0.00014802169
136	0x3902e977	0.00012484739
137	0x3992c4db	0.0002799396
138	0x38cc1e3a	9.733108e-05
139	0x38dd644c	0.00010556783
140	0x38e84ffc	0.0001107752
141	0x39b07d23	0.0003366257
142	0x392afa0a	0.0001630561
143	0x38a317c2	7.776871e-05
144	0x3a9db82b	0.0012033036
145	0x3a1dff7a	0.00060271437
146	0x3a33fe21	0.0006866176
147	0x3a3ea47d	0.00072724355
148	0x39779425	0.00023610944
149	0x3a38a787	0.00070440065
150	0x39e40ce9	0.00043497168
151	0x3a5f0c90	0.0008508647
152	0x3a352637	0.00069102965
153	0x39401cfc	0.00018321344
154	0x3ab8b01c	0.0014090571
155	0x3a11d7dd	0.0005563477
156	0x3b6b007c	0.0035858443
157	0x3b768940	0.0037618428
158	0x3b6e7ff2	0.003639218
159	0x3c2fce90	0.010730401
160	0x3b998a13	0.004685649
161	0x3b9fcf34	0.0048769955
162	0x3b884f45	0.0041598403
163	0x3b617713	0.003440325
164	0x3bfd2131	0.007724904
165	0x3b124885	0.0022321057
166	0x3c0d8cfc	0.00863957
167	0x3b771b28	0.0037705395
168	0x3b04082d	0.0020146475
169	0x3af471e1	0.0018649661
170	0x3b0bcabf	0.0021330563
171	0x3a4b8e53	0.00077650434
172	0x3b03261a	0.0020011724
173	0x3a1f2c86	0.0006072003
174	0x3c053a5e	0.008131592
175	0x3baa70b2	0.0052014226
176	0x3a616262	0.0008597729
177	0x3b1a9f3f	0.0023593453
178	0x39ca17d6	0.00038546202
179	0x3b77b1d0	0.0037795193
180	0x3c4c754f	0.01247914
181	0x3cd2f6b5	0.025752405
182	0x3c9045f0	0.017611474
183	0x3ca3ad5c	0.019980125
184	0x3cbb1ecf	0.02284184
185	0x3c14fcb7	0.009093455
186	0x3c7c164c	0.015386175
187	0x3ccde43a	0.025133241
188	0x3ca4584a	0.02006163
189	0x3ca5d873	0.020244813
190	0x3ca1ef00	0.019767284
191	0x3ca0673f	0.019580482
192	0x3c988b23	0.018621033
193	0x3c645a04	0.013937477
194	0x3c05bc49	0.008162566
195	0x3bb1418b	0.0054094247
196	0x3c13a47f	0.009011387
197	0x3c07112c	0.00824384
198	0x3c51d77c	0.012807723
199	0x3c5753fd	0.013142583
200	0x3c152f3f	0.009105503
201	0x3c0aa6fc	0.008462664
202	0x3b7af54e	0.0038293186
203	0x3c914c77	0.017736657
204	0x3c3fdb4d	0.01171
205	0x3b936433	0.0044980287
206	0x3d041e2e	0.032255344
207	0x3ce02083	0.027359253
208	0x3c48a2e1	0.012245865
209	0x3c86e535	0.016466716
210	0x3c0787c3	0.008272114
211	0x3cc2f124	0.023796625
212	0x3cbf967a	0.023387183
213	0x3ca55964	0.020184226
214	0x3cbe9e7f	0.023268936
215	0x3c627b19	0.013823294
216	0x3cb33841	0.02187741
217	0x3c82a12a	0.01594599
218	0x3c400e4b	0.011722158
219	0x3c99b601	0.018763544
220	0x3c38cea3	0.011279735
221	0x3ca0d5df	0.019633232
222	0x3c68bd1c	0.014205243
223	0x3c8623cc	0.016374491
224	0x3c8991e6	0.016793203
225	0x3c39a791	0.011331455
226	0x3c0fb972	0.008772241
227	0x3c83e126	0.01609857
228	0x3bd0a4a4	0.006367283
229	0x3be88508	0.0070959367
230	0x3b8d4d85	0.0043122196
231	0x3b4af117	0.0030966455
232	0x3b902d02	0.0043998966
233	0x3b08a4a1	0.002085008
234	0x3bbaf4f6	0.005705471
235	0x3ba333d7	0.004980545
236	0x3bb9d249	0.00567082
237	0x3b78958f	0.003793094
238	0x3b1bbade	0.0023762505
239	0x3b878652	0.0041358853
240	0x3c5d8f82	0.013522984
241	0x3c60ae02	0.013713362
242	0x3c2e2894	0.010629792
243	0x3c4aa5a8	0.012368597
244	0x3c34ad3a	0.011027629
245	0x3c1849ad	0.009294909
246	0x3b6b0f76	0.003586737
247	0x3c8a1e67	0.0168602
248	0x3c2293f7	0.009922973
249	0x3be02848	0.0068407394
250	0x3c2adcc4	0.010428611
251	0x3bc586a0	0.0060280114
252	0x3b0a474e	0.002109963
253	0x3b042cc0	0.0020168275
254	0x3b51cba5	0.003201225
255	0x3a8bb13e	0.0010657681

exp_avg f4 [30, 84]
0	0xbc86940f	-0.016428022
1	0x3c98bedf	0.018645702
2	0x3be16b69	0.0068792594
3	0x3d855282	0.06509878
4	0x3cd2ab3e	0.02571642
5	0x3d4126bc	0.04715608
6	0x3d3f1c88	0.04665807
7	0xbc2c7b02	-0.010527374
8	0x3bf559fe	0.0074875345
9	0x3caf055d	0.021364862
10	0x3d04340a	0.03227619
11	0x3cb0b9c4	0.021572955
12	0xbc8cd12a	-0.017189581
13	0x3ca84f21	0.020545544
14	0x3bedd24c	0.0072577354
15	0x3d8cd653	0.068768166
16	0x3cbb13e9	0.022836642
17	0x3d44f246	0.048082612
18	0x3d3ca386	0.046054386
19	0xbc77d1b7	-0.0151256835
20	0x3bb2e9bd	0.0054599927
21	0x3cb25769	0.021770196
22	0x3d1bf114	0.038071707
23	0x3ca1665f	0.019702135
24	0xbca798c5	-0.020458588
25	0x3cac6656	0.021044891
26	0x3c04d556	0.008107504
27	0x3d999588	0.07499224
28	0x3cadf71d	0.021235997
29	0x3d5266e2	0.051367648
30	0x3d477681	0.048697
31	0xbc83a749	-0.016070979
32	0x3b02ab11	0.001993839
33	0x3cc3a246	0.023881089
34	0x3d0a5b85	0.033778686
35	0x3c8d8bc6	0.017278563
36	0xbca4ce85	-0.020118007
37	0x3c9568f3	0.01823852
38	0x3bc42a37	0.0059864777
39	0x3d8ff50b	0.0702916
40	0x3caf727a	0.021416891
41	0x3d3e7b77	0.046504464
42	0x3d3af55b	0.045644145
43	0xbc317a98	-0.010832451
44	0x3bdca3b3	0.0067333817
45	0x3cc3f7b3	0.023921823
46	0x3d051cd6	0.032498203
47	0x3c96deae	0.018416729
48	0xbc86d07c	-0.016456835
49	0x3ca89a18	0.02058129
50	0x3c17361b	0.009229208
51	0x3d887a3e	0.06663941
52	0x3cada206	0.021195423
53	0x3d37ee47	0.044904973
54	0x3d3cfc26	0.046138905
55	0xbc51b2b9	-0.012798958
56	0x3c0bd515	0.008534689
57	0x3cc82436	0.02443133
58	0x3d04c9ae	0.0324189
59	0x3c991250	0.01868549
60	0xbc529a04	-0.012854103
61	0x3cc7ea1d	0.024403626
62	0x3c12dd07	0.00896383
63	0x3d7412b5	0.059588153
64	0x3caf9e59	0.02143781
65	0x3d379e60	0.044828773
66	0x3d3f5ca1	0.046719197
67	0xbc4db956	-0.012556395
68	0x3c0b57ed	0.00850485
69	0x3cb7fe52	0.022460137
70	0x3cef97ba	0.029247154
71	0x3c899c8b	0.016798278
72	0xbc47e4f7	-0.012200586
73	0x3cd532ca	0.026025195
74	0x3c19ff6d	0.009399277
75	0x3d6fa265	0.05850448
76	0x3cb1e311	0.021714719
77	0x3d3aad88	0.04557565
78	0x3d407445	0.046985883
79	0xbc22b148	-0.009929962
80	0x3c14353a	0.009045893
81	0x3cc2c59c	0.023775868
82	0x3cdb220a	0.02674963
83	0x3c7d23ef	0.015450462
84	0xbb926773	-0.0044678985
85	0x3c16c230	0.009201571
86	0x3b7ed740	0.0038885623
87	0x3cae4fdf	0.02127832
88	0x3c0b5905	0.008505111
89	0x3bbf284c	0.005833661
90	0x3c44554c	0.011983227
91	0x3aa5707d	0.0012622025
92	0x3c141682	0.009038569
93	0x3a350e11	0.0006906698
94	0x3c3ff690	0.0117165
95	0x3b03431f	0.002002902
96	0xbbbc6c6b	-0.005750229
97	0x3bffc601	0.0078055863
98	0x3b50a82b	0.0031838517
99	0x3cc02834	0.02345667
100	0x3bb26d2b	0.0054451427
101	0x3c18b815	0.009321232
102	0x3c57aa91	0.013163225
103	0xba0ad8bb	-0.00052965776
104	0x3b8357c8	0.004008267
105	0x3ab497be	0.0013778133
106	0x3c4da26f	0.012550934
107	0x3a90ab48	0.0011037374
108	0xbc423c17	-0.011855147
109	0x39a8a374	0.0003216524
110	0x3b0d0f39	0.0021523966
111	0x3cf01ce2	0.029310647
112	0x3a842c18	0.0010083942
113	0x3c588a6a	0.013216594
114	0x3c835b0b	0.016034624
115	0xbb54f297	-0.0032493228
116	0x3a9d2cae	0.0011991465
117	0x3b9de8d3	0.0048190146
118	0x3c80b6e4	0.015712209
119	0x3b0e4401	0.0021708014
120	0xbc3231a5	-0.010876094
121	0xbb36496a	-0.0027814754
122	0x3af3f9d8	0.0018613888
123	0x3ce21b7e	0.027601
124	0xbb97e2e9	-0.004635204
125	0x3c69ab61	0.014262051
126	0x3c8868da	0.01665156
127	0xba007f91	-0.00049018214
128	0x3802d80f	3.1195636e-05
129	0x3bcbc0a2	0.006218032
130	0x3c7060f4	0.014671553
131	0x3b64f063	0.003493332
132	0xbc348c22	-0.011019738
133	0xba768147	-0.0009403419
134	0x3ba9294b	0.005162393
135	0x3cb65fec	0.022262536
136	0xb79f9993	-1.902579e-05
137	0x3c3d8267	0.011566735
138	0x3c4ce19a	0.0125049595
139	0x3b128ddb	0.0022362384
140	0x3ba6de13	0.0050923913
141	0x3baa4e4f	0.0051973234
142	0x3c28e206	0.010307794
143	0x3b861f48	0.0040930845
144	0xbc2ecc9c	-0.0106689
145	0xbaec36bd	-0.0018021684
146	0x3bb2d42e	0.0054574227
147	0x3c9de099	0.019272136
148	0x3a329ee1	0.0006813836
149	0x3c036efc	0.008022066
150	0x3c1dfe67	0.009643174
151	0x3af0292b	0.0018322816
152	0x3c31db03	0.010855439
153	0x3af91064	0.0019002077
154	0x3c308fb9	0.010776454
155	0x3bede70a	0.007260208
156	0xbbd9ce9d	-0.0066469447
157	0x3b99cfab	0.0046939454
158	0x3b6a0638	0.0035709273
159	0x3c878fa3	0.016547984
160	0x3b853157	0.0040647197
161	0x3a4f20c0	0.00079013035
162	0x3bde719c	0.0067884456
163	0x3b2a45a5	0.0025981453
164	0x3c65ef80	0.014034152
165	0x39e4cea4	0.00043641508
166	0x3c206a7f	0.009791016
167	0x3c04f0e7	0.008114076
168	0xb82135a3	-3.8435344e-05
169	0xbbef9ad7	-0.0073121595
170	0xbbf91b6c	-0.007602146
171	0xbcd8a0a0	-0.02644378
172	0xbc1685c0	-0.009187162
173	0xbc49f329	-0.01232604
174	0xbc81cddf	-0.015845237
175	0xb864672e	-5.445553e-05
176	0xbbf2727a	-0.0073989006
177	0xbb632045	-0.0034656685
178	0xbc55dbca	-0.01305289
179	0xbc045c78	-0.008078687
180	0x3b1eb3fd	0.0024216168
181	0xbbb67173	-0.0055677234
182	0xbbcadd16	-0.0061909063
183	0xbcdb6372	-0.026780818
184	0xbc06f9dd	-0.008238283
185	0xbc54ec35	-0.012995769
186	0xbc8f58a5	-0.017498324
187	0xbafee833	-0.0019447863
188	0xbb90c727	-0.004418272
189	0xbbd116c5	-0.006380888
190	0xbc4c6aba	-0.0124766175
191	0xbbe8aad4	-0.0071004424
192	0x3a95840a	0.0011407149
193	0xbb5c5931	-0.0033622498
194	0xbbfc1d8a	-0.007693951
195	0xbcedf0d4	-0.0290455
196	0xbc05c480	-0.008164525
197	0xbc8eafd6	-0.01741783
198	0xbc88bd9c	-0.016691975
199	0x3b19bffe	0.0023460384
200	0xbac5028e	-0.0015030669
201	0xbbaf31e1	-0.005346522
202	0xbc968eb0	-0.018378586
203	0xbc1807df	-0.00927922
204	0x3bfa2947	0.007634315
205	0xb9997732	-0.00029271242
206	0xbb96bb79	-0.004599985
207	0xbcf955dd	-0.03043645
208	0xbb6cc023	-0.0036125265
209	0xbc91468f	-0.01773384
210	0xbca14afc	-0.019689076
211	0xb9cb3fda	-0.0003876675
212	0xba8edca2	-0.0010899494
213	0xbc24c4f4	-0.010056723
214	0xbc847f2e	-0.016173925
215	0xbbf5996f	-0.0074950974
216	0x3b0d6707	0.0021576302
217	0xbb3977e4	-0.002830022
218	0xbbe659fe	-0.007029771
219	0xbce2d23e	-0.027688142
220	0xbbe7d6a8	-0.0070751496
221	0xbc69725f	-0.01424846
222	0xbc81191f	-0.015759049
223	0x3a169330	0.00057439785
224	0xbb233458	-0.0024903025
225	0xbbabdc0a	-0.0052447366
226	0xbc8b2730	-0.01698646
227	0xbc38b701	-0.0112741
228	0x3b73acd1	0.0037181864
229	0xbab5bcdc	-0.0013865489
230	0xbbd6e2bb	-0.00655779
231	0xbcd7d321	-0.026345791
232	0xbbe6c498	-0.007042479
233	0xbc44fb12	-0.01202275
234	0xbc7b1433	-0.01532464
235	0xbad0beb7	-0.0015925978
236	0xbbd85f54	-0.006603161
237	0xbbe84388	-0.0070881285
238	0xbc79a6fd	-0.015237567
239	0xbc26d96f	-0.010183676
240	0xb8a7a00f	-7.992994e-05
241	0xbbf2ddaf	-0.0074116806
242	0xbbfab5a0	-0.007651046
243	0xbcd0b13b	-0.025475135
244	0xbc26f18c	-0.010189425
245	0xbc190d58	-0.00934156
246	0xbc5b0135	-0.013366987
247	0xbab16bfc	-0.001353621
248	0xbc198f43	-0.009372535
249	0xbb79a6c6	-0.003809379
250	0xbc53a787	-0.01291836
251	0xbc380345	-0.011231248
252	0x385a2261	5.2007268e-05
253	0x36ca5ea8	6.0310886e-06
254	0xb7af494c	-2.0895757e-05
255	0xb8e2df53	-0.00010818117
